V1.01/logic_evaluation_model.pth (torch, 19429 bytes, 13 tensors)

net.0.weight f4 [64, 7]
0.13221614 -0.25372988 0.13875951 0.20131662 -0.22862947 0.0169044 -0.26508367 0.014330003
0.13841742 0.24996579 -0.22618465 -0.21790473 0.20517094 -0.24431778 -0.042569146 0.011849954
-0.21411331 0.04384781 -0.16706595 -0.15125465 -0.12266497 0.23216635 -0.05481042 0.13805626
0.19701925 0.11340736 0.19919214 0.27579495 0.2061604 -0.20871423 -0.019803703 0.14750598
-0.17826974 0.23188077 -0.22420856 -0.1333135 0.1452341 -0.16933873 -0.031427395 -0.0024955105
0.04488406 0.11512518 0.22835727 0.21435805 0.1014869 0.2437731 0.124823034 0.014670181
0.24787529 0.13023548 -0.25839734 0.1094199 -0.013467477 -0.007707115 -0.0947819 0.22783755
-0.16539392 -0.037480667 -0.032324556 -0.18227153 -0.09983816 -0.0844305 -0.057408754 0.13715295
-0.05157446 0.08310227 -0.19722158 0.18028274 0.0319697 0.20602132 0.19825599 0.17983212
-0.0050681564 -0.12813605 0.187195 -0.064552724 -0.062071495 0.2857445 -0.041105505 0.13097161
0.0030369342 0.025067283 -0.15316088 0.02904137 0.21311325 -0.06311371 -0.20794949 0.0449242
0.10273569 0.012263932 0.28031114 0.007870634 -0.12974209 0.078484796 0.091023386 0.292583
0.064917944 -0.060469817 -0.25243697 -0.07966303 0.062275633 0.10638197 -0.1698638 0.084398106
0.13684976 0.12737346 0.08581347 -0.029626822 0.025334068 0.05872607 0.17606148 0.27084023
0.08708387 0.16153048 0.017308 -0.13268279 -0.06743856 -0.19158947 -0.24180189 -0.07826963
0.022132289 0.24888341 -0.2719413 -0.10140232 0.061428357 0.18583539 -0.046766233 -0.021242505
-0.049424343 0.15963352 0.0017422722 -0.0029995905 -0.17912401 0.22470497 0.24949986 -0.23189907
0.25668672 -0.06342197 -0.09325322 -0.06365777 0.18049072 -0.16986832 0.11319614 0.21922973
0.10983544 0.21884547 0.019765887 -0.27857432 -0.19444595 0.18264477 0.26494023 -0.14140661
-0.2378719 -0.0117560215 0.2384698 0.11320574 -0.26227853 0.2646534 0.040787112 0.033082303
0.22034086 -0.21764673 -0.111113444 0.22217216 -0.10068026 -0.026214281 -0.00083659904 0.16328894
-0.1411032 0.21772233 0.058981363 0.032605276 0.0065888544 -0.14760055 0.068503305 -0.038044877
-0.2327235 -0.06623301 0.17508398 0.19675332 0.087051034 0.12209881 -0.21726647 -0.14796448
0.23784262 -0.250619 0.06947372 0.16293664 -0.1884237 -0.033439554 0.21628504 0.27441913
-0.17868069 -0.0016400923 0.16224211 0.0073727006 0.15024836 0.15101385 0.0858106 0.00096921204
-0.08773149 -0.06427849 -0.23874283 -0.022266984 0.010716237 0.03615101 0.06306511 0.16563536
-0.23630734 0.018101081 0.05212994 -0.21350202 0.03903512 0.13372214 -0.13243996 0.035370164
-0.17476293 -0.042068455 -0.07564634 -0.036205623 0.021351716 -0.14707203 -0.0022078569 0.0964346
-0.07567615 -0.02959939 0.002063211 0.01952676 -0.022132542 -0.033248052 -0.09941212 0.07540564
-0.05214848 -0.21224429 -0.19199122 0.15638997 0.09345825 -0.011422335 0.018826075 0.0828888
0.104778334 -0.19991115 0.13574171 0.003993094 -0.10452384 0.044128027 0.23973295 0.15769881
-0.25571474 -0.099591136 0.05369799 -0.18926075 0.20078404 0.03386152 0.12321449 -0.060450684
00000000: ab63 073e e2e8 81be f916 0e3e f225 4e3e
00000010: d81d 6abe 197b 8a3c 0cb9 87be 64c8 6a3c
00000020: 4cbd 0d3e 08f7 7f3e f39c 67be 6b22 5fbe
00000030: 5518 523e 712e 7abe fc5c 2ebd 4f26 423c
00000040: 8540 5bbe c399 333d 5613 2bbe 80e2 1abe
00000050: c637 fbbd 04bd 6d3e e480 60bd 9f5e 0d3e
00000060: 6abf 493e 1e42 e83d 06f9 4b3e ff34 8d3e
00000070: b61b 533e 2fb9 55be 603b a2bc cf0b 173e
00000080: 588c 36be 2772 6d3e ee96 65be 5683 08be
00000090: 3fb8 143e 2267 2dbe 03ba 00bd b88b 23bb
000000a0: 59d8 373d c0c6 eb3d 7dd6 693e ad80 5b3e
000000b0: 5dd8 cf3d a89f 793e 38a3 ff3d 335b 703c
000000c0: 05d3 7d3e 735c 053e a84c 84be 8a17 e03d
000000d0: b1a6 5cbc f78b fcbb 031d c2bd 3f4e 693e
000000e0: 065d 29be 5485 19bd c166 04bd 63a5 3abe
000000f0: f377 ccbd e6e9 acbd 7125 6bbd d371 0c3e
00000100: be3f 53bd 8631 aa3d 74f4 49be 0a9c 383e
00000110: a9f2 023d 41f7 523e 9e03 4b3e e925 383e
00000120: c712 a6bb 1936 03be 0cb0 3f3e 3834 84bd
00000130: ae3e 7ebd 1a4d 923e 3f5e 28bd 6c1d 063e
00000140: 4d07 473b e759 cd3c 35d6 1cbe 2be8 ed3c
00000150: 5c3a 5a3e c341 81bd b6f0 54be 7002 383d
00000160: 1767 d23d a9ee 483c f184 8f3e d5f3 003c
00000170: 1cdb 04be a3bc a03d 786a ba3d 70cd 953e
00000180: b3f3 843d 33af 77bd 6b3f 81be 5f26 a3bd
00000190: bc14 7f3d cade d93d c7f0 2dbe ead8 ac3d
000001a0: 5822 0c3e 306e 023e f9be af3d f3b3 f2bc
000001b0: 6489 cf3c bf8a 703d 7649 343e 92ab 8a3e
000001c0: 0759 b23d 3f68 253e 82c9 8d3c ffdd 07be
000001d0: 3a1d 8abd 0830 44be ea9a 77be d44b a0bd
000001e0: c64e b53c 4bdb 7e3e e43b 8bbe 05ac cfbd
000001f0: 4d9c 7b3d a24b 3e3e f38d 3fbd c304 aebc
00000200: 2e71 4abd f876 233e f45c e43a c794 44bb
00000210: 496c 37be 0f19 663e e47c 7f3e f376 6dbe
00000220: 716c 833e 61e3 81bd 8bfb bebd 015f 82bd
00000230: 8fd2 383e f6f1 2dbe 61d3 e73d c27d 603e
00000240: 67f1 e03d 0719 603e 12ec a13c 4ba1 8ebe
00000250: d71c 47be 3b07 3b3e 3fa6 873e e5cc 10be
00000260: b194 73be 549c 40bc 6d31 743e 69d8 e73d
00000270: 5f49 86be a780 873e 6310 273d 4f81 073d
00000280: 09a1 613e c9de 5ebe 728f e3bd 1981 633e
00000290: 7431 cebd 55bf d6bc 364f 5bba 3735 273e
000002a0: 5b7d 10be 9af2 5e3e 7196 713d 1c8d 053d
000002b0: 51e7 d73b 9924 17be 764b 8c3d f2d4 1bbd
000002c0: 124f 6ebe 2ca5 87bd 3749 333e b479 493e
000002d0: d047 b23d f10e fa3d 1a7b 5ebe 0084 17be
000002e0: 048d 733e 2251 80be 3d48 8e3d ddd8 263e
000002f0: 24f2 40be eaf7 08bd d379 5d3e aa80 8c3e
00000300: 12f8 36be 5ef8 d6ba cc22 263e b296 f13b
00000310: b5da 193e 60a3 1a3e 78bd af3d b812 7e3a
00000320: 91ac b3bd 71a4 83bd 0079 74be 4069 b6bc
00000330: 2893 2f3c 1513 143d 4828 813d 519c 293e
00000340: 8dfa 71be b848 943c 3486 553d 46a0 5abe
00000350: 4ae3 1f3d 75ee 083e 579e 07be 4ee0 103d
00000360: 0ef5 32be f94f 2cbd 78ec 9abd 594c 14bd
00000370: cbe9 ae3c 0d9a 16be b1b1 10bb 817f c53d
00000380: 19fc 9abd 6c7a f2bc f036 073b 95f6 9f3c
00000390: 4e4f b5bc 1c2f 08bd 9598 cbbd 466e 9a3d
000003a0: a599 55bd 9156 59be 5999 44be b124 203e
000003b0: 0a67 bf3d bf24 3bbc 2439 9a3c 9ac1 a93d
000003c0: 0696 d63d 82b5 4cbe e0ff 0a3e 80d8 823b
000003d0: 9810 d6bd 97bf 343d 8e7c 753e cc7b 213e
000003e0: 0bed 82be 70f6 cbbd 6cf2 5b3d 92cd 41be
000003f0: 559a 4d3e 61b2 0a3d e157 fc3d 239b 77bd

net.0.bias f4 [64]
0.0078382 -0.008483777 -0.006052036 -0.0036539086 -0.009853546 -0.0058582434 0.024077768 -0.02633554
-0.006291826 0.011356932 0.018560782 0.0026657677 0.02159145 0.021865854 -0.0036226884 -0.00361759
-0.0057251547 0.0012653343 0.0013064865 -0.013438995 -0.0070866994 -0.0006427176 -0.009769845 0.0015000086
-0.017068077 -0.0050078817 -0.006023453 0.014015488 -0.00066307816 -0.01746469 -0.0042245644 -0.0095498385
-0.0056439647 -0.0058865184 -0.004295131 -0.005763603 -0.0073142066 0.010569071 -0.012651421 0.006055495
0.011094257 -0.0015687982 0.0051505365 -0.0062185074 -0.006117312 -0.015724601 0.02396716 -0.006266526
0.018375305 -0.008015154 0.0068678698 -0.006002683 -0.021022845 0.017715862 0.010404168 0.008247316
0.00260029 0.006101998 -0.0021652097 -0.007118844 -0.0061461693 -0.013055812 -0.0057540517 0.007711648
00000000: cb6b 003c 8aff 0abc 2850 c6bb 6a76 6fbb
00000010: c470 21bc 82f6 bfbb bd3e c53c a1bd d7bc
00000020: a92b cebb 6d12 3a3c c80c 983c 29b4 2e3b
00000030: 8de0 b03c 0520 b33c a06a 6dbb 1715 6dbb
00000040: 149a bbbb 93d9 a53a 6a3e ab3a 3b2f 5cbc
00000050: 8b37 e8bb 0c7c 28ba b311 20bc f09b c43a
00000060: 5ad2 8bbc 2819 a4bb 6360 c5bb 38a1 653c
00000070: 6cd2 2dba 1c12 8fbc 376e 8abb ed76 1cbc
00000080: 02f1 b8bb b2e3 c0bb 2cbe 8cbb 9bdc bcbb
00000090: 03ac efbb e629 2d3c e847 4fbc 2c6d c63b
000000a0: b0c4 353c 22a0 cdba d5c5 a83b 9fc4 cbbb
000000b0: bb73 c8bb e1d0 80bc c756 c43c 6e57 cdbb
000000c0: cf87 963c fe51 03bc de0b e13b 28b2 c4bb
000000d0: 1a38 acbc db20 913c 3e76 2a3c c01f 073c
000000e0: a169 2a3b 45f3 c73b 31e6 0dbb 3145 e9bb
000000f0: ce65 c9bb 0be8 55bc 7c8c bcbb feb1 fc3b

net.1.weight f4 [64]
0.95109403 0.9493232 0.94932216 0.97626144 0.9510554 0.94932216 0.9873891 0.9605982
0.94932216 0.95758754 0.9494551 0.9592191 0.94931835 0.9553229 0.95013815 0.95949626
0.94932216 0.95021373 0.94931734 0.95705694 0.97150886 0.9673096 0.9605363 0.94956905
0.95330125 0.9553618 0.94932216 0.9501271 0.9507156 0.96071947 0.9500247 0.9492867
0.94932216 0.94932216 0.9493243 0.94932216 0.9581051 0.9735685 0.95067835 0.94938004
0.9526991 0.9494713 0.968047 0.94932216 0.94932216 0.95086735 0.98545724 0.94932216
0.9506365 0.9493628 0.9508221 0.94932216 0.9550077 0.951041 0.95586777 0.9490211
0.9505535 0.96163166 0.95173246 0.9493073 0.94932216 0.9515445 0.94932216 0.9492044
00000000: e67a 733f d806 733f c706 733f 45ec 793f
00000010: 5e78 733f c706 733f 88c5 7c3f c3e9 753f
00000020: c706 733f 7524 753f 7d0f 733f 628f 753f
00000030: 8706 733f 0b90 743f 413c 733f 8ca1 753f
00000040: c706 733f 3541 733f 7606 733f af01 753f
00000050: ceb4 783f 9aa1 773f b5e5 753f f516 733f
00000060: 8d0b 743f 9792 743f c706 733f 883b 733f
00000070: 1962 733f b6f1 753f d234 733f 7404 733f
00000080: c706 733f c706 733f eb06 733f c706 733f
00000090: 6046 753f c93b 793f a85f 733f 920a 733f
000000a0: 17e4 733f 8d10 733f eed1 773f c706 733f
000000b0: c706 733f 0b6c 733f ed46 7c3f c706 733f
000000c0: ea5c 733f 7109 733f 1469 733f c706 733f
000000d0: 627b 743f 6c77 733f c0b3 743f 0cf3 723f
000000e0: 7957 733f 7e2d 763f bda4 733f ce05 733f
000000f0: c706 733f 6c98 733f c706 733f 0fff 723f

net.1.bias f4 [64]
0.008405434 -0.0034149373 0.0 -0.0034203762 -0.009193459 0.0 0.023353022 -0.025482029
0.0 0.010815532 0.017592717 0.0039667315 0.021159094 0.02095979 -0.0033716827 -0.003197161
0.0 0.002012952 0.0044211815 -0.013085449 -0.0073558544 -0.00034829087 -0.0087793125 0.0026240358
-0.01643022 -0.003587277 0.0 0.013518397 0.00089875126 -0.017398257 0.00062763895 -0.001281822
0.0 0.0 -0.0021237643 0.0 -0.0073059266 0.0102419 -0.011523606 0.010499864
0.010335346 0.005569657 0.0055954284 0.0 0.0 -0.012696759 0.0227976 0.0
0.017756097 -0.005342431 0.006826193 0.0 -0.021164237 0.017183103 0.009919829 0.007917543
0.002733853 0.0068304795 -0.0011813334 -0.003538608 0.0 -0.012701252 0.0 0.009076516
00000000: f2b6 093c 24cd 5fbb 0000 0000 6428 60bb
00000010: 29a0 16bc 0000 0000 d64e bf3c b0bf d0bc
00000020: 0000 0000 a133 313c 9a1e 903c 5bfb 813b
00000030: d655 ad3c deb3 ab3c 73f7 5cbb 7687 51bb
00000040: 0000 0000 bbeb 033b 8fdf 903b 5a64 56bc
00000050: 6109 f1bb cf9a b6b9 1bd7 0fbc 04f8 2b3b
00000060: ab98 86bc 8518 6bbb 0000 0000 447c 5d3c
00000070: 2d9a 6b3a ca86 8ebc 2388 243a cf02 a8ba
00000080: 0000 0000 0000 0000 da2e 0bbb 0000 0000
00000090: 8e66 efbb a4cd 273c 82cd 3cbc 9f07 2c3c
000000a0: 9555 293c ab81 b63b db59 b73b 0000 0000
000000b0: 0000 0000 1106 50bc 08c2 ba3c 0000 0000
000000c0: 3c75 913c 8f0f afbb 42ae df3b 0000 0000
000000d0: 9f60 adbc 94c3 8c3c c786 223c 95b8 013c
000000e0: 712a 333b 37d2 df3b f9d6 9aba fee7 67bb
000000f0: 0000 0000 e918 50bc 0000 0000 abb5 143c

net.4.weight f4 [32, 64]
-0.18780616 -0.1486284 0.0518798 -0.101659946 -0.0146020455 0.14502952 -0.19343013 -0.20519961
0.0476787 -0.11875645 -0.17079261 0.1534008 0.18334934 0.1275031 -0.033245526 -0.08776804
-0.1644615 0.1807016 -0.0164747 -0.051405363 -0.005835469 0.0018272873 -0.10837944 -0.12640688
-0.17081745 -0.21049698 -8.611938e-05 -0.08473703 -0.1749776 -0.19694957 0.12630783 -0.00064484874
-0.13181773 4.909095e-06 0.0009340161 -0.16777714 -0.11989709 0.1468527 -0.11607024 0.14221434
-0.15288559 -0.04380584 0.038279258 -0.06807046 -0.18287252 0.18824808 0.17857072 -0.012443203
0.21721016 0.03947743 0.18405572 0.07291482 -0.09592468 0.023739493 -0.09400495 -0.12904559
0.17201813 -0.01224722 -0.079389885 -0.16917408 -0.023789683 -0.09275592 -0.047104493 -0.124926716
0.10974538 -0.008686374 0.0001560138 0.04128791 -0.10042249 0.000153653 -0.12413067 0.21560779
0.08032639 -0.027146496 -0.013809905 -0.0886425 -0.20262195 -0.15054603 0.099480465 0.19178736
-0.061515655 0.044620316 0.00063438725 0.11873988 0.18671489 -0.17047177 -0.2451332 -0.12024558
0.13378994 -0.19613583 0.07889782 0.18906143 0.037047785 -0.11843896 0.042327043 -0.1656155
0.0018548076 0.0823589 -0.05539677 -0.17105833 0.20179859 0.18565185 0.030702641 0.08899928
-0.03597205 0.029954307 0.14568497 -0.00031450109 -0.06885083 -0.00941085 -0.25225326 -0.18977273
-0.01875509 -0.056633238 -0.14897363 0.014209478 -0.10005782 -0.051769078 -0.10825701 -0.088591546
0.1629025 -0.10955125 -0.12873203 0.14823766 0.1744744 0.082208246 -0.15236719 0.17690195
0.11044117 0.035803102 -0.15117624 -0.1329946 -8.547056e-05 0.11989087 0.1866943 0.17027952
-0.17948973 -0.20840582 -0.041842606 -0.12312236 -0.009496667 -0.07899253 -0.11247234 -0.20347731
-0.054570265 0.041913588 -0.008802153 0.07038723 0.040996566 -0.17057359 -0.057625078 0.032017324
0.1684856 -0.11984897 -0.031970426 0.03431982 -0.21642432 -0.06379479 -0.1414033 0.032800227
-0.0010978277 0.015088044 0.027477542 -0.00053480145 0.15920864 -0.032311477 0.023620535 0.16366315
-0.02892161 0.08344791 -0.1105081 -0.036387254 -0.064995885 0.18385145 0.020479472 0.15879089
0.0026154222 -0.025655085 0.04194803 0.07651108 0.15592374 0.02230798 -0.031503882 -0.16397929
0.07305246 0.0349655 0.16538866 0.07257059 0.01616947 0.1535737 -0.009672173 0.20036095
-0.038895376 0.08942543 -0.040971912 0.014661874 -0.021669056 -0.17655264 -0.055854302 0.13445632
0.184165 -0.10747825 -0.027336098 0.025878781 0.1811854 0.0018442554 0.13211867 -0.057497803
0.19013654 0.0071636112 0.00019593882 0.21148261 -0.19308214 -0.008939761 -0.12688528 -0.19559035
-0.0709408 0.22893146 0.14840643 0.17830873 -0.1814047 0.14232387 0.005663301 -0.1443669
0.13022567 -0.08015681 0.0027508992 -0.061715692 -0.17480932 0.08474608 -0.11028573 -0.16639426
0.116326585 -0.1753644 -0.0052524544 0.15237232 0.13514183 0.09333126 -0.12127351 -0.18323632
-0.1645964 0.1386973 0.16851246 0.17125341 0.03703411 -0.1376837 -0.19121945 -0.08515267
0.064796485 -0.071633324 0.13961533 0.107204154 -0.08419906 -0.11424467 -0.16526502 -0.16545558
00000000: 4250 40be 0b32 18be ea7f 543d 1733 d0bd
00000010: 6b3d 6fbc 9e82 143e 8c12 46be d91f 52be
00000020: be4a 433d 9536 f3bd 42e4 2ebe 1915 1d3e
00000030: eebf 3b3e 2c90 023e 762c 08bd bbbf b3bd
00000040: 9868 28be d709 393e f3f5 86bc 6e8e 52bd
00000050: 7637 bfbb 9681 ef3a 0af6 ddbd ce70 01be
00000060: c5ea 2ebe 858c 57be fd9a b4b8 9c8a adbd
00000070: 542d 33be 26ad 49be d756 013e 110b 29ba
00000080: 3afb 06be ceb8 a436 c2d8 743a c5cd 2bbe
00000090: 9b8c f5bd 8e60 163e 3cb6 edbd a3a0 113e
000000a0: 0a8e 1cbe c16d 33bd b6ca 1c3d 8668 8bbd
000000b0: ef42 3bbe 1bc4 403e 3edb 363e 93de 4bbc
000000c0: 576c 5e3e 16b3 213d 1a79 3c3e 5d54 953d
000000d0: 2974 c4bd 5379 c23c ab85 c0bd 8724 04be
000000e0: 8525 303e 90a8 48bc 2a97 a2bd f83b 2dbe
000000f0: 95e2 c2bc d1f6 bdbd a4f0 40bd 94d9 ffbd
00000100: 30c2 e03d 4b51 0ebc a397 2339 831d 293d
00000110: 4eaa cdbd ea1d 2139 3938 febd 4ac8 5c3e
00000120: 2a82 a43d 5462 debc f142 62bc 338a b5bd
00000130: 217c 4fbe bd28 1abe 6abc cb3d e863 443e
00000140: d7f7 7bbd cbc3 363d 024d 263a e52d f33d
00000150: 3032 3f3e 2790 2ebe 3304 7bbe 5143 f6bd
00000160: 3b00 093e d5d7 48be 2e95 a13d 5299 413e
00000170: 6bbf 173d 2090 f2bd 1f5f 2d3d 1c97 29be
00000180: 041d f33a c8ab a83d b9e7 62bd ea29 2fbe
00000190: 4aa4 4e3e 851b 3e3e 1b84 fb3c 4145 b63d
000001a0: 6e57 13bd bc62 f53c 712e 153e 9fe3 a4b9
000001b0: aa01 8dbd f72f 1abc 5727 81be c853 42be
000001c0: 46a4 99bc 41f8 67bd 8b8c 18be dfce 683c
000001d0: 1deb ccbd d00b 54bd dab5 ddbd 7c6f b5bd
000001e0: eacf 263e 685c e0bd 54d2 03be 9dcb 173e
000001f0: 6ba9 323e cc5c a83d 2506 1cbe c925 353e
00000200: fb2e e23d 46a6 123d f2cd 1abe bd2f 08be
00000210: a83e b3b8 5889 f53d ca2c 3f3e c15d 2e3e
00000220: 28cc 37be 5668 55be 2763 2bbd 9327 fcbd
00000230: e997 1bbc d6c6 a1bd e657 e6bd 5b5c 50be
00000240: 1285 5fbd 95ad 2b3d e836 10bc 2e27 903d
00000250: 04ec 273d d8aa 2ebe 4608 6cbd 9924 033d
00000260: 7d87 2c3e 6073 f5bd 6cf3 02bd f192 0c3d
00000270: 569e 5dbe d8a6 82bd 07cc 10be 8859 063d
00000280: fce4 8fba d833 773c 9518 e13c eb31 0cba
00000290: 9707 233e 0a59 04bd da7f c13c 5097 273e
000002a0: 03ed ecbc bde6 aa3d 1252 e2bd cd0a 15bd
000002b0: 901c 85bd 8e43 3c3e 91c4 a73c 149a 223e
000002c0: 8167 2b3b 9d2a d2bc b3d1 2b3d d7b1 9c3d
000002d0: 79aa 1f3e 3abf b63c 370a 01bd 30ea 27be
000002e0: 879c 953d fc37 0f3d a55b 293e e49f 943d
000002f0: d675 843c 6d42 1d3e 0978 1ebc 6c2b 4d3e
00000300: c250 1fbd ae24 b73d 2ad2 27bd 5b38 703c
00000310: 4e83 b1bc 37ca 34be 7bc7 64bd ebae 093e
00000320: c095 3c3e 8f1d dcbd f4ef dfbc bdff d33c
00000330: aa88 393e f1ba f13a 1e4a 073e d182 6bbd
00000340: 27b3 423e babc ea3b ed74 4d39 e68e 583e
00000350: 53b7 45be 1378 12bc 37ee 01be d648 48be
00000360: 6949 91bd 026d 6a3e dbf7 173e 9096 363e
00000370: 27c2 39be 59bd 113e 3693 b93b ebd4 13be
00000380: e159 053e 4129 a4bd 6e48 343b 98c9 7cbd
00000390: 3701 33be 5a8f ad3d 7cdd e1bd 4263 2abe
000003a0: a23c ee3d ba92 33be c81c acbb 7d07 1c3e
000003b0: 9f62 0a3e 7624 bf3d 3f5e f8bd 4da2 3bbe
000003c0: f58b 28be aa06 0e3e 888e 2c3e 0e5d 2f3e
000003d0: 14b1 173d f5fc 0cbe 08cf 43be 8664 aebd
000003e0: 05b4 843d 7eb4 92bd 52f7 0e3e da8d db3d
000003f0: 8f70 acbd 1cf9 e9bd 3c3b 29be 306d 29be

net.4.bias f4 [32]
0.0003206633 -0.010947214 -0.015447467 0.003283697 -0.00076718716 -0.0025900886 2.141614e-05 0.004056025
0.030434188 -0.016768372 -0.01822777 0.002876831 0.0100056995 -0.0056052017 -0.014380375 0.005195383
-0.0035683154 -0.015364271 -0.00075151783 -9.1191905e-05 -0.0022617856 -0.00064100017 0.025410632 0.010805891
0.0018599865 -0.0052218707 -0.00473561 0.033684824 -0.01107055 0.025345216 0.004992607 0.011727819
00000000: b31e a839 f25b 33bc 5f17 7dbc 4b33 573b
00000010: 0f1d 49ba 7abe 29bb cfa6 b337 67e8 843b
00000020: 1e51 f93c d35d 89bc 6852 95bc 3789 3c3b
00000030: f2ee 233c d7ab b7bb aa9b 6bbc 083e aa3b
00000040: 66da 69bb 6cba 7bbc 8201 45ba 483e bfb8
00000050: 773a 14bb cb08 28ba f529 d03c 310b 313c
00000060: caca f33a 3a1c abbb 2d2d 9bbb 19f9 093d
00000070: 4161 35bc c5a0 cf3c 0699 a33b 0a26 403c

net.5.weight f4 [32]
0.9509808 0.95438385 0.9575788 0.95082706 0.9815446 0.9510166 0.9508911 0.9600599
1.0120183 0.9552505 0.9659842 0.95122397 0.9488255 0.95021284 0.9592126 0.9500907
0.94926965 0.94952476 0.94933474 0.94916236 0.9508131 0.96257734 0.99382526 0.9490026
0.9499238 0.94930667 0.96911865 0.9672265 0.9508271 0.95913076 0.95406824 0.95567596
00000000: 7a73 733f 8052 743f e223 753f 6769 733f
00000010: 8246 7b3f d375 733f 996d 733f 7cc6 753f
00000020: d189 813f 4c8b 743f be4a 773f 6a83 733f
00000030: 3ae6 723f 2641 733f f58e 753f 2539 733f
00000040: 5603 733f 0e14 733f 9a07 733f 4efc 723f
00000050: 7d68 733f 786b 763f 556b 7e3f d6f1 723f
00000060: 352e 733f c305 733f 2918 783f 289c 773f
00000070: 6869 733f 9889 753f d13d 743f 2ea7 743f

net.5.bias f4 [32]
0.00337364 -0.008535744 -0.01340602 0.0034226063 -0.0020401 -0.0013946714 -3.1649968e-05 0.004300299
0.030540893 -0.014791159 -0.01767024 0.0016498726 0.011172086 -0.007969738 -0.01277062 0.0053098807
-0.0021206583 -0.013240794 0.002392658 0.002213376 -0.0033435468 -0.0010387924 0.021762049 0.012290701
0.0046274196 -0.0064741005 -0.0045223497 0.03304586 -0.008763979 0.024597319 0.0064298306 0.012906662
00000000: 4918 5d3b 81d9 0bbc eca4 5bbc ce4d 603b
00000010: 33b3 05bb 68cd b6ba e5bf 04b8 86e9 8c3b
00000020: e530 fa3c 9e56 72bc 2ec1 90bc 8a40 d83a
00000030: 200b 373c 8193 02bc dd3b 51bc 82fe ad3b
00000040: befa 0abb eaef 58bc 24ce 1c3b 4a0e 113b
00000050: 681f 5bbb 1728 88ba 5346 b23c f05e 493c
00000060: 9ca1 973b b124 d4bb 3830 94bb 185b 073d
00000070: cb96 0fbc 5180 c93c 54b1 d23b 7776 533c

net.8.weight f4 [16, 32]
0.044754706 0.07795725 0.014052829 0.30216247 -0.029341413 -0.24337772 -0.052836303 -0.21232496
-0.3498533 -0.26006088 0.0694961 0.07957118 -0.033595882 -0.14414108 -0.31768444 -0.010695275
-0.15464206 -0.24367839 -0.063898645 0.15012476 -0.26332337 -0.20286459 0.060876023 0.2431975
0.13399614 0.2832439 -0.17784762 -0.024750821 0.13472809 -0.31819886 -0.2792623 -0.2768874
-0.28737 0.031296585 0.2275861 0.03972949 0.013315511 0.034118645 0.16362005 -0.27475655
-0.28488177 0.20126964 -0.24949944 0.1965904 -0.015828945 -0.038451817 -0.18244499 0.019639987
-0.00057236804 0.17941023 -0.19499108 0.15650785 -0.08528907 -0.20004526 -0.18673149 0.17111747
0.13876817 -0.042872984 0.30454642 -0.041788988 0.24323277 0.1977727 -0.03975813 0.18650141
-0.2592788 0.19779113 -0.2629499 -0.20100302 0.30236164 0.25174892 -0.27493727 0.08153836
-0.00235693 -0.023902966 -0.06484849 -0.12677103 -0.29902786 0.1782246 -0.0069424845 -0.12405356
-0.050790388 -0.30330577 -0.25184166 0.26867896 0.29543614 0.30776894 0.24589105 0.273343
-0.17872016 -0.2759038 0.061274193 -0.0828563 -0.3009783 -0.049241822 -0.22649202 0.34327966
0.21672691 -0.27487183 -0.3154912 -0.048524905 0.0033835392 0.32150647 -0.11799533 -0.13890477
-0.21987413 -0.0027911568 -0.017497823 0.1278278 -0.0018304171 0.27283034 0.26188508 0.23830125
-0.16726893 0.25025895 0.1669686 0.24702996 0.03174981 -0.11911372 -0.08147777 -0.13834448
0.080285 -0.27416918 -0.09597182 -0.1624254 0.15456659 0.28945857 0.2704547 -0.086702436
-0.23460934 -0.00676791 -0.34192413 -0.16007319 0.3518846 0.25612688 0.14121631 -0.22646385
0.31980482 0.08670983 0.100032456 0.19305193 0.20972441 0.04807026 -0.16407977 0.11619058
0.12279489 -0.2249583 -0.23129603 0.2903818 -0.24396533 -0.19113119 -0.17484605 0.2667061
-0.1708627 -0.020262128 -0.27177244 -0.09590434 0.19348586 -0.2310745 0.3112024 -0.2636973
-0.11088278 0.31104165 0.012581614 -0.24580093 0.10010578 0.12984847 -0.33376673 -0.14981128
0.100252 0.086163126 0.15391266 0.13198778 -0.17631637 0.26258525 -0.18288931 0.21783267
0.040475354 0.084754236 -0.11021634 0.070524305 0.23084967 -0.0908428 0.18696703 0.17467533
0.31051654 -0.022848714 0.3109705 0.21239771 0.053680483 0.1763585 -0.11028261 -0.15543498
0.2606694 0.23159505 0.29565093 0.04078124 0.015313369 -0.11153812 0.10565587 -0.2075849
-0.34027448 -0.15096729 -0.10422713 -0.284046 -0.1473371 0.10704708 -0.22634685 0.23027676
-0.27749866 -0.2175268 -0.080683045 -0.16730306 0.23757581 0.12547924 -0.38305137 -0.08736772
-0.16156827 0.004046644 -0.26263368 -0.33139393 -0.1457373 -0.21232301 -0.15654196 0.09278546
-0.11681133 0.03735961 0.29896694 -0.22191176 0.18386254 -0.22167619 0.07752713 -0.12791738
0.018448194 -0.20787668 -0.1730784 -0.16872865 0.2996249 -0.055622287 -0.24536166 -0.18307632
-0.13440625 -0.25112164 0.14127803 0.04947395 -0.2511359 0.029708147 0.03054754 -0.106747665
0.20196362 -0.1686228 0.3180437 0.28514293 0.30861047 -0.15755032 0.07194123 -0.21545075
00000000: b650 373d 0da8 9f3d d63d 663c 0ab5 9a3e
00000010: 675d f0bc 0238 79be e16a 58bd b76b 59be
00000020: f91f b3be b326 85be f953 8e3d 37f6 a23d
00000030: d69b 09bd b899 13be 89a7 a2be 3c3b 2fbc
00000040: 7d5a 1ebe d486 79be 4bdd 82bd 4eba 193e
00000050: 52d2 86be bcbb 4fbe 2359 793d c408 793e
00000060: 4936 093e 5805 913e b01d 36be 3cc2 cabc
00000070: 29f6 093e f6ea a2be 78fb 8ebe 2fc4 8dbe
00000080: 2922 93be d930 003d 550c 693e 64bb 223d
00000090: 4d29 5a3c febf 0b3d 048c 273e e4ac 8cbe
000000a0: 06dc 91be a119 4e3e c87c 7fbe fe4e 493e
000000b0: b4ab 81bc a77f 1dbd dcd2 3abe 0ae4 a03c
000000c0: f80a 16ba 51b7 373e beab 47be 9843 203e
000000d0: 09ac aebd aad8 4cbe 8a36 3fbe 6b39 2f3e
000000e0: 3e19 0e3e 959b 2fbd 82ed 9b3e ee2a 2bbd
000000f0: 0312 793e ed84 4a3e 6cd9 22bd 3afa 3e3e
00000100: 31c0 84be c289 4a3e 5fa1 86be bcd3 4dbe
00000110: 25cf 9a3e 3ce5 803e 94c4 8cbe 95fd a63d
00000120: b976 1abb 27d0 c3bc 49cf 84bd 44d0 01be
00000130: 2e1a 99be 8280 363e c87d e3bb cb0f febd
00000140: 9509 50bd e54a 9bbe 64f1 80be 4a90 893e
00000150: 6843 973e e493 9d3e ddca 7b3e 9df3 8b3e
00000160: 6b02 37be 4343 8dbe a6fa 7a3d 90b0 a9bd
00000170: d419 9abe cbb1 49bd 86ed 67be 5ac2 af3e
00000180: a9ed 5d3e 00bc 8cbe 1088 a1be 0dc2 46bd
00000190: 5ebe 5d3b 7f9c a43e 89a7 f1bd 0d3d 0ebe
000001a0: af26 61be d7eb 36bb 9857 8fbc 4ae5 023e
000001b0: 9bea efba 6bb0 8b3e cd15 863e 3e05 743e
000001c0: 8c48 2bbe f121 803e d1f9 2a3e 6cf5 7c3e
000001d0: 170c 023d e5f1 f3bd d1dd a6bd 2daa 0dbe
000001e0: 766c a43d e75f 8cbe e08c c4bd d852 26be
000001f0: b446 1e3e ea33 943e 0a79 8a3e 0c91 b1bd
00000200: 6e3d 70be 58c5 ddbb ae10 afbe 3aea 23be
00000210: 382a b43e 1023 833e 029b 103e 24e6 67be
00000220: 75bd a33e ec94 b13d d1dd cc3d 68af 453e
00000230: ffc1 563e 52e5 443d 8704 28be 54f5 ed3d
00000240: e37b fb3d 785b 66be ded8 6cbe ecac 943e
00000250: 0cd2 79be e5b7 43be d80a 33be b48d 883e
00000260: a2f6 2ebe c3fc a5bc c225 8bbe 7f69 c4bd
00000270: 2821 463e cb9e 6cbe ec55 9f3e 5503 87be
00000280: 8316 e3bd da40 9f3e 1d23 4e3c 3db3 7bbe
00000290: 4204 cd3d fff6 043e 79e3 aabe 2168 19be
000002a0: ec50 cd3d 4b76 b03d 489b 1d3e ce27 073e
000002b0: 478c 34be 9371 863e 5647 3bbe 870f 5f3e
000002c0: 7cc9 253d a193 ad3d 1bb9 e1bd 0c6f 903d
000002d0: db63 6c3e ca0b babd 4974 3f3e 17de 323e
000002e0: 06fc 9e3e 3a2d bbbc 8637 9f3e c97e 593e
000002f0: 11e0 5b3d 5397 343e d9db e1bd 592a 1fbe
00000300: 7676 853e 4127 6d3e 8f5f 973e 3b0a 273d
00000310: ede4 7a3c 196e e4bd 1b62 d83d 2391 54be
00000320: 7538 aebe 2b97 1abe 0975 d5bd 7a6e 91be
00000330: 89df 16be 803b db3d 78c7 67be accd 6b3e
00000340: 4e14 8ebe 58bf 5ebe 273d a5bd 7e51 2bbe
00000350: 1347 733e a17d 003e 4f1f c4be d9ed b2bd
00000360: 2772 25be b699 843b ec77 86be 77ac a9be
00000370: 293c 15be 346b 59be 894c 20be 4e06 be3d
00000380: c73a efbd 6406 193d 3212 993e d63c 63be
00000390: 7646 3c3e 15ff 62be 8bc6 9e3d c6fc 02be
000003a0: ab20 973c a0dd 54be 773b 31be 34c7 2cbe
000003b0: 6f68 993e 32d4 63bd 1640 7bbe 5c78 3bbe
000003c0: cba1 09be 0493 80be 30ab 103e 32a5 4a3d
000003d0: e294 80be 805e f33c d63e fa3c 859e dabd
000003e0: 8dcf 4e3e 75ab 2cbe a0d6 a23e 41fe 913e
000003f0: 3102 9e3e df54 21be ec55 933d 1f9f 5cbe

net.8.bias f4 [16]
-0.030515065 0.012011268 0.016543215 0.015688598 0.0037342987 -0.0045579104 -0.036074255 0.030253896
0.005699925 -0.017793631 -0.011728062 -0.030964095 -0.030266555 -0.0019721496 0.015297683 -0.0015408408
00000000: bbfa f9bc e9ca 443c a385 873c 6085 803c
00000010: 23bb 743b 865a 95bb 99c2 13bd 05d7 f73c
00000020: 70c6 ba3b f3c3 91bc 0f27 40bc 6aa8 fdbc
00000030: 91f1 f7bc 2e3f 01bb 22a3 7a3c 0af6 c9ba

net.9.weight f4 [16]
0.94932216 0.9511474 0.9807289 0.9491207 0.96654224 0.971885 0.9494757 0.9498268
0.9512474 0.9508275 0.9504612 0.9520967 0.95567656 0.98923844 0.9868415 0.96238947
00000000: c706 733f 657e 733f 0d11 7b3f 93f9 723f
00000010: 506f 773f 75cd 783f d710 733f d927 733f
00000020: f384 733f 6e69 733f 6d51 733f 9cbc 733f
00000030: 38a7 743f bb3e 7d3f a5a1 7c3f 285f 763f

net.9.bias f4 [16]
0.0 -0.02374029 0.008606721 0.023556937 0.011825219 -0.00980362 0.0013263791 0.0024889368
-0.019412896 -0.010334076 0.006495522 -0.029805316 -0.028805848 -0.009043583 0.008342407 -0.0072285454
00000000: 0000 0000 ff7a c2bc 3403 0d3c 7afa c03c
00000010: 90be 413c 5d9f 20bc e6d9 ad3a 6e1d 233b
00000020: cb07 9fbc 4250 29bc 63d8 d43b 472a f4bc
00000030: 3efa ebbc 892b 14bc 97ae 083c 6fdd ecbb

net.11.weight f4 [1, 16]
0.08252943 0.030069007 -0.20582834 -0.3463361 0.31120774 0.47044364 0.47172472 -0.009123039
0.050138444 0.20184013 -0.42268956 0.2237673 0.21537288 0.4101166 -0.3064613 -0.21167535
00000000: 3105 a93d 4753 f63c aac4 52be f752 b1be
00000010: 9f56 9f3e fddd f03e e785 f13e cd78 15bc
00000020: f85d 4d3d 2eaf 4e3e c46a d8be 4123 653e
00000030: b58a 5c3e cefa d13e 7fe8 9cbe 6cc1 58be
